examples/ml-100k/best.pth (torch, 686615 bytes, 11 tensors)

gmf.user_emb.weight f4 [943, 32]
0	0x3e9fea40	0.31233406
1	0xbe529987	-0.20566379
2	0xbcff49ad	-0.031163061
3	0x3e9c65c8	0.30546403
4	0xbdb5744b	-0.08860072
5	0x3f210443	0.6289713
6	0x3ec75722	0.38933665
7	0x3be38561	0.0069433902
8	0xbec138cc	-0.37738645
9	0xbc810b0d	-0.01575234
10	0xbde633e0	-0.11240363
11	0x3f10357b	0.56331605
12	0x3ea1d1c7	0.3160536
13	0x3e0969fd	0.13419338
14	0x3d3c0f9c	0.045913324
15	0x3c83855c	0.016054802
16	0x3f2a4544	0.6651194
17	0x3e2b63d7	0.16737305
18	0x3e01724f	0.12641262
19	0x3e645686	0.22298631
20	0xbe6fb921	-0.23410465
21	0xbede1e80	-0.43382645
22	0xbe64ab98	-0.22331083
23	0xbc828ab6	-0.015935283
24	0xbe00d4af	-0.12581132
25	0xbcae1b1c	-0.021253161
26	0x3c7f3c7a	0.015578384
27	0x3f0f0773	0.5587074
28	0x3e54aed4	0.20769817
29	0xbdf662cb	-0.12030562
30	0x3d589531	0.052876655
31	0xbd2987e0	-0.041389346
32	0xbe05ad1a	-0.13054314
33	0xbdfc3e04	-0.12316516
34	0x3e8e3794	0.27776778
35	0x3f0e652a	0.55623114
36	0xbec8030e	-0.3906483
37	0x3c2b459c	0.010453608
38	0xbefbb354	-0.49160254
39	0x3f1cbf2b	0.612292
40	0x3f3e375e	0.74303234
41	0x3f2df501	0.6795197
42	0x3ea3b253	0.31971988
43	0x3db4eb84	0.088339835
44	0xbe949f7b	-0.29027924
45	0x3df5aced	0.119958736
46	0x3ea18265	0.31544796
47	0xbe7ab51d	-0.24483152
48	0x3ddcba6d	0.107777454
49	0x3e8c09a6	0.2735111
50	0xbde58fde	-0.11209081
51	0x3e34e8f4	0.1766699
52	0x3ebf4058	0.37353778
53	0x3e08b732	0.13351133
54	0xbeedae00	-0.46421814
55	0xbdb9b4ae	-0.09067665
56	0xbe276afa	-0.16349402
57	0xbdb3699f	-0.0876038
58	0xbe599f17	-0.21252094
59	0xbc6fb033	-0.0146294115
60	0xbe9e27ce	-0.30889744
61	0xbdaef8fe	-0.08543585
62	0xbe49561d	-0.19661756
63	0xbd36bf12	-0.044615813
64	0x3ebafd88	0.36521554
65	0xbd17a5f4	-0.0370235
66	0xbe310653	-0.17287569
67	0xbf241c35	-0.6410554
68	0x3e8f82c1	0.28029445
69	0xbe26fa70	-0.16306472
70	0xbefe1520	-0.49625492
71	0xbea8d56d	-0.3297533
72	0x3e233fc0	0.15942287
73	0x3f1aeb39	0.6051517
74	0x3dffbe7b	0.12487503
75	0xbdf163f8	-0.11786646
76	0x3d5ca54d	0.05386858
77	0xbec8fb1c	-0.3925408
78	0xbf4dd38a	-0.8040091
79	0x3ec710d0	0.38880014
80	0x3e413d7f	0.18871115
81	0xbf4112b2	-0.7541915
82	0x3e96675b	0.2937573
83	0xbec3dea0	-0.38255787
84	0xbdad7926	-0.08470373
85	0x3e82f2c1	0.25575832
86	0xbdae7392	-0.08518137
87	0xbdcdc198	-0.10046691
88	0x3f30c8f2	0.6905662
89	0xbbd77c07	-0.0065760645
90	0xbd299d0c	-0.041409537
91	0xbf1af724	-0.60533357
92	0x3d89beec	0.067258686
93	0x3bedf45c	0.007261796
94	0xbda0c667	-0.07850342
95	0xbedbafe5	-0.42907634
96	0x3dd2cd02	0.102930084
97	0x3f36985d	0.7132624
98	0x3e613d8d	0.21996136
99	0xbea673b9	-0.32510164
100	0x3efbe77c	0.49200046
101	0xbdd8744c	-0.10569057
102	0xbf9df3a3	-1.2339977
103	0xbf5d6aa9	-0.86490875
104	0x3ed7764e	0.42082447
105	0xbf00830e	-0.50199974
106	0xbe0775ab	-0.1322848
107	0x3f404999	0.751123
108	0xbecffa33	-0.40620574
109	0xbd02bdcb	-0.031919282
110	0xbe3a804f	-0.18213008
111	0xbf1e3b2e	-0.6180905
112	0xbee55ef3	-0.44799003
113	0x3d1bc297	0.038027372
114	0xbf218b9e	-0.63103664
115	0x3f45e18c	0.7729728
116	0xbf3d98e6	-0.7406143
117	0xbf0c0c55	-0.5470632
118	0x3e517d68	0.20457995
119	0x3d0949f5	0.033517797
120	0x3e17a78b	0.14810006
121	0xbf646281	-0.89212805
122	0x3f28e59b	0.6597535
123	0x3e71e341	0.23621847
124	0x3e7d0553	0.24709062
125	0x3e2918f9	0.16513433
126	0x3e223c77	0.15843378
127	0xbe1af25c	-0.15131515
128	0xbea524a7	-0.32254526
129	0x3ec0b126	0.37635154
130	0x3e84c099	0.2592819
131	0x3e9de6a7	0.30840036
132	0x3edb053f	0.4277744
133	0x3ea4cb81	0.3218651
134	0x3e9fab19	0.31185225
135	0x3e942ce4	0.289405
136	0xbe97390a	-0.29535705
137	0x3d2ac34b	0.041690152
138	0x3dc0c5a1	0.09412695
139	0xbda8c4b0	-0.0824064
140	0xbe2a15ba	-0.1660985
141	0x3dc0b25f	0.094090216
142	0x3e1577f2	0.14596537
143	0xbe2cd55e	-0.16878268
144	0x3ee4eb0c	0.44710577
145	0x3e34cf37	0.17657171
146	0xbecd9117	-0.40149757
147	0xbdd15f9e	-0.10223316
148	0x3e836ae9	0.25667503
149	0x3c9e94fd	0.019358153
150	0xbe153eee	-0.14574787
151	0xbe414048	-0.18872178
152	0xbe5e0eb2	-0.21685293
153	0xbe3a0174	-0.18164617
154	0xbe161b47	-0.14658843
155	0x3e2fcda7	0.17168294
156	0x3db5e3ec	0.08881363
157	0x3e115f6d	0.14196558
158	0xbea7be06	-0.32762164
159	0x3e5bda8a	0.21470085
160	0x3d6cd1a2	0.05781711
161	0xbdd5cc8b	-0.10439404
162	0xbf54161f	-0.82846254
163	0xbf1df227	-0.6169762
164	0xbeafabcb	-0.34310755
165	0xbdf74616	-0.12073915
166	0x3edc141a	0.42984086
167	0xbe0741fb	-0.13208763
168	0xbf0d4e59	-0.55197674
169	0x3e0a072f	0.13479303
170	0x3ef78320	0.48342228
171	0x3e0d6f4d	0.13811989
172	0x3e68fe98	0.2275337
173	0xbeada7fe	-0.3391723
174	0xbd8e2955	-0.06941477
175	0x3e6495ba	0.22322741
176	0xbe84a4ef	-0.25907084
177	0x3d0ee25e	0.03488385
178	0xbeb1c43f	-0.34720036
179	0xbd112eeb	-0.035445135
180	0xbe91313e	-0.2835788
181	0x3ebbf16b	0.36707625
182	0x3f46e326	0.7769035
183	0x3b85c62c	0.004082462
184	0xbe9d3902	-0.30707556
185	0x3e88d874	0.2672764
186	0x3eb0abc9	0.34506062
187	0x3ed64139	0.41846636
188	0x3e5ab39b	0.21357577
189	0xbdd1c066	-0.10241775
190	0x3e5cc12c	0.21558064
191	0x3c49d070	0.012317762
192	0xbe590c46	-0.21196088
193	0xbea8f7ab	-0.33001456
194	0xbe4b2b63	-0.1984077
195	0xbe79b2ba	-0.24384585
196	0xbe1f8d39	-0.15581216
197	0x3eb5e2b1	0.35524514
198	0x3e1ed84b	0.15512197
199	0xbeb44b3b	-0.35213646
200	0xbe1488cd	-0.1450531
201	0x3df41b39	0.11919255
202	0x3ea83ce4	0.32858956
203	0x3f02124c	0.5080917
204	0x3e31ab4f	0.17350505
205	0x3e9351f2	0.28773457
206	0xbf01dba6	-0.5072578
207	0xbebee745	-0.3728582
208	0xbe32ae5f	-0.1744933
209	0xbf00e52e	-0.503497
210	0xbde2d370	-0.11075485
211	0x3ce8941f	0.028390942
212	0xbf4f5214	-0.80984616
213	0x3f149876	0.58045137
214	0x3e954080	0.29150772
215	0x3df5b21f	0.119968645
216	0xbdb169d9	-0.08662767
217	0x3e478a91	0.19486453
218	0x3e5459cf	0.20737384
219	0x3eb09b56	0.34493512
220	0xbe4c9070	-0.19976974
221	0xbd660ea3	-0.056166302
222	0xbead9e1f	-0.339097
223	0xbe9db86c	-0.30804765
224	0x3f104241	0.56351095
225	0x3e64ae76	0.22332177
226	0xbe27fced	-0.16405077
227	0xbe7d8444	-0.24757487
228	0xbe118a24	-0.14212853
229	0xbdd64f47	-0.1046434
230	0x3e86c943	0.26325426
231	0x3e3a71dc	0.18207496
232	0x3f1dadc6	0.6159328
233	0xbe8b02f9	-0.27150705
234	0x3e975f0b	0.295647
235	0x3f1b7c69	0.6073671
236	0x3de5465c	0.111950606
237	0xbf4a175f	-0.7894191
238	0xbf3d31ea	-0.7390429
239	0x3f19d230	0.60086346
240	0x3d62bf2b	0.055358093
241	0xb9826246	-0.00024868752
242	0xbe4703d5	-0.19435056
243	0x3e35970d	0.17733403
244	0xbd0c5a5a	-0.034265853
245	0x3e09d873	0.13461475
246	0x3ec97328	0.3934567
247	0x3d85ae14	0.065273434
248	0x3f58b209	0.8464666
249	0xbf411900	-0.7542877
250	0x3e129793	0.14315633
251	0x3caa5366	0.02079172
252	0xbe19295b	-0.14957182
253	0xbe42d069	-0.19024815
254	0x3ebe2626	0.3713848
255	0xbe30b9d1	-0.17258383

gmf.item_emb.weight f4 [1682, 32]
0	0x3f03706a	0.51343405
1	0x3ea8a374	0.32937205
2	0xbda537e8	-0.08067304
3	0x3e395d36	0.18101963
4	0xbe4d47b5	-0.20046885
5	0xbf3deebb	-0.741924
6	0xbe86f751	-0.26360562
7	0x3e22b7e3	0.1589046
8	0x3efc9a2d	0.49336377
9	0xbeb23030	-0.3480239
10	0xbf09bdb5	-0.53805095
11	0xbda1074e	-0.078627214
12	0x3ea4ee89	0.32213238
13	0xbdbe7373	-0.09299364
14	0x3dc556c3	0.09635689
15	0xbedf790b	-0.43647036
16	0xbead261d	-0.3381814
17	0x3f065d26	0.52485883
18	0x3e25e3fd	0.16200252
19	0xbe93b684	-0.28850186
20	0x3d9f687a	0.07783599
21	0x3f023280	0.50858307
22	0xbdcbe111	-0.099550374
23	0xbe410c44	-0.18852335
24	0x3f1fa8a5	0.62366706
25	0xbe3f7586	-0.18697175
26	0xbe416f4b	-0.18890111
27	0x3d43038f	0.047610816
28	0x3eb7bc34	0.35885775
29	0x3cf50ec7	0.029914273
30	0xbe4da38b	-0.20081918
31	0x3e0e9ddb	0.13927405
32	0x3ebcb96c	0.36860216
33	0x3f261853	0.64880866
34	0x3f23f0cd	0.6403931
35	0xbd9bc2ab	-0.07605489
36	0x3f63852e	0.8887509
37	0xbe66e244	-0.22547251
38	0xbb8410b7	-0.004030313
39	0xbf2ce45c	-0.6753595
40	0x3e0a5127	0.1350752
41	0x3e0d44c7	0.13795768
42	0xba60e339	-0.00085787807
43	0x3ef94314	0.4868399
44	0x3f235d0f	0.6381387
45	0xbe7ae7f2	-0.24502543
46	0x3cbfa3e7	0.023393584
47	0xbeee4353	-0.4653574
48	0xbe875ddd	-0.264388
49	0x3f2b442d	0.66900903
50	0x3ead9ce1	0.33908752
51	0xbee68148	-0.4502051
52	0x3ef34dc8	0.4752028
53	0xbea9500c	-0.33068883
54	0x3f4f9ba2	0.8109685
55	0x3f5793e8	0.8421006
56	0x3ef0e308	0.4704821
57	0xbe8fa7a4	-0.28057587
58	0xbea10595	-0.3144957
59	0xbf1135e9	-0.56722885
60	0x3f8d35af	1.1032008
61	0x3e34524a	0.17609516
62	0x3eecb465	0.4623138
63	0xbeb59448	-0.35464692
64	0x3e3f92dd	0.18708368
65	0xbd37b5af	-0.044851
66	0x3e31e448	0.17372239
67	0x3d812f04	0.06307796
68	0xbeb07f4d	-0.34472123
69	0xbe11a5e0	-0.14223433
70	0xbda4b3c7	-0.08042102
71	0xbe2783f9	-0.16358937
72	0x3df60431	0.12012518
73	0xbee6156b	-0.44938216
74	0xbe8bdbd2	-0.27316147
75	0x3ebb603b	0.36596856
76	0xbea40f14	-0.32042754
77	0xbdefa602	-0.11701585
78	0xbe052af3	-0.13004665
79	0x3eb35451	0.35025266
80	0xbdc7150b	-0.097208105
81	0xbe909c4c	-0.28244245
82	0x3d381d8f	0.044950064
83	0x3db700f1	0.089357264
84	0x3c08e9f4	0.00835656
85	0x3d892649	0.066967554
86	0x3dbe0cc2	0.09279777
87	0x3d43a543	0.047765028
88	0xbe2c7abc	-0.16843694
89	0xba6ff035	-0.000915292
90	0x3ee50810	0.44732714
91	0x3e850a35	0.2598435
92	0xbea324a5	-0.31863895
93	0x3ddd8135	0.1081566
94	0xbe6a5f68	-0.22887957
95	0xbebaa242	-0.36451918
96	0x3f347218	0.70486593
97	0x3e2466a6	0.16054782
98	0xbec13f3c	-0.37743556
99	0x3d162aca	0.0366619
100	0x3ebcd7fb	0.3688353
101	0x3dd5645e	0.10419534
102	0x3d604188	0.054749995
103	0x3e0a8a80	0.13529396
104	0xbefc8575	-0.4932057
105	0xbdff3c10	-0.12462628
106	0xbe9eb687	-0.30998632
107	0xbecee130	-0.4040618
108	0xbf183f5e	-0.5947169
109	0x3df5c58d	0.120005704
110	0xbe8755d0	-0.26432657
111	0x3f1371e7	0.57595676
112	0x3e8dccd6	0.2769534
113	0xbd7e1fb8	-0.062041968
114	0xbd2ff95a	-0.04296241
115	0x3d35479b	0.04425774
116	0xbe5426f9	-0.20717992
117	0x3f366dcb	0.7126128
118	0xbe20840c	-0.15675372
119	0x3f621ff3	0.8833
120	0x3d124e01	0.03571892
121	0x3dfb1b9f	0.12261128
122	0x3d9e9642	0.07743503
123	0x3f15c0a3	0.58497065
124	0xbe0a43ce	-0.13502428
125	0xbdc17b61	-0.09447361
126	0xbe391835	-0.1807564
127	0x3cb2f4a3	0.021845168
128	0x3e4ddddc	0.20104164
129	0x3ed8e7fe	0.42364496
130	0x3d906e6d	0.07052312
131	0xbeb68469	-0.35647896
132	0xbdd48e34	-0.103786856
133	0xbf1f1aee	-0.62150466
134	0x3df7d1e1	0.12100578
135	0x3e0574ce	0.13032839
136	0x3ed54025	0.416505
137	0x3f20fce2	0.6288587
138	0x3e8509d9	0.25984076
139	0x3eb02509	0.34403256
140	0x3e71d4a8	0.23616278
141	0xbf185ea9	-0.5951944
142	0x3ef58611	0.47953847
143	0x3d5861ea	0.052827753
144	0xbe9e19be	-0.30879015
145	0x3e9305eb	0.28715453
146	0x3f3bfc2a	0.73431647
147	0xbe2d439b	-0.1692032
148	0x3d36120f	0.044450816
149	0xbee19850	-0.44061518
150	0xbe098984	-0.13431364
151	0x3f1898e8	0.59608316
152	0x3e84fe9c	0.25975502
153	0xbed439ab	-0.41450247
154	0xbe2a12e6	-0.16608772
155	0xbde1a4d5	-0.11017767
156	0xbe110668	-0.141626
157	0x3f411bf2	0.75433266
158	0x3f0c148e	0.54718864
159	0x3eb03c5c	0.3442105
160	0xbf5717e1	-0.8402081
161	0xbf0dda31	-0.5541106
162	0xbe80d09b	-0.25159153
163	0x3f06f9c6	0.52724874
164	0xbe73528b	-0.23761956
165	0x3e1f3100	0.15546036
166	0xbf64cfbc	-0.8937948
167	0x3f17f9e9	0.5936571
168	0x3eb8d6cc	0.36101377
169	0xbf9d193f	-1.227333
170	0x3d0e5ddb	0.034757476
171	0xbded2f9c	-0.115813464
172	0xbf147aa7	-0.5799965
173	0xbeea2384	-0.4573022
174	0xbeb8107c	-0.35950077
175	0x3f5ba78d	0.8580254
176	0xbf04b5e7	-0.5184006
177	0xbd00a13d	-0.03140377
178	0xbd06a4cb	-0.032872003
179	0x3c084e5b	0.008319463
180	0x3ee8d167	0.4547226
181	0xbfadba71	-1.3572522
182	0xbf479eb4	-0.77976537
183	0x3f37b4fb	0.7176053
184	0x3e14543c	0.14485258
185	0x3e07b73e	0.13253495
186	0xbd96fd21	-0.07372499
187	0xbd6196c2	-0.055075414
188	0xbeaee705	-0.3416063
189	0x3ded155e	0.11576341
190	0xbecb7963	-0.39741048
191	0x3ef79dab	0.4836248
192	0xbec923d9	-0.39285162
193	0x3e20b4cd	0.1569397
194	0x3df80ed9	0.12112207
195	0xbef24e32	-0.47325283
196	0x3ecbd844	0.39813435
197	0x3d86bca9	0.06578953
198	0x3f7b3d99	0.98140866
199	0x3f2da82f	0.6783475
200	0x3e9dc109	0.30811337
201	0xbf0ba726	-0.54551923
202	0xbf2615c3	-0.64876956
203	0xbf355119	-0.7082687
204	0xbf8a373a	-1.0798104
205	0xbc3bc61a	-0.011460805
206	0x3ec1d184	0.3785516
207	0xbd3c3029	-0.045944367
208	0x3dd95875	0.10612575
209	0xbfa6da14	-1.3035302
210	0x3db32080	0.08746433
211	0xbde91d3a	-0.11382528
212	0xbed3af0c	-0.41344488
213	0xbf5e6779	-0.86876637
214	0xbf4dcd2e	-0.80391204
215	0xbf2876e2	-0.658064
216	0xbf1e1890	-0.6175623
217	0x3eb46570	0.3523364
218	0x3e90ca8c	0.2827953
219	0x3e97e804	0.296692
220	0xbf40f110	-0.7536783
221	0xbe3bafce	-0.18328783
222	0xbf5306a8	-0.8243203
223	0x3f2f23c8	0.6841397
224	0xbe8383d4	-0.25686514
225	0x3df5fd13	0.12011161
226	0xbe3e82f5	-0.18604644
227	0x3c56dd2d	0.013114256
228	0x3e724c4f	0.23661922
229	0xbeb06811	-0.34454396
230	0x3ea7763b	0.3270739
231	0x3e6cbfe2	0.23120072
232	0xbf46e706	-0.77696264
233	0xbe6c0507	-0.23048793
234	0xbe99e689	-0.30058697
235	0x3ea439ca	0.3207534
236	0xbe1030a7	-0.1408106
237	0x3f25d318	0.6477523
238	0x3eb8b428	0.36074948
239	0x3eaf8d5b	0.34287533
240	0x3ee2ac59	0.44272116
241	0xbe70363b	-0.23458187
242	0xbeb33af2	-0.3500591
243	0x3ebfe216	0.37477177
244	0xbe2c11f6	-0.16803727
245	0x3ec10906	0.37702197
246	0xbee1a19b	-0.44068608
247	0xbe149ae1	-0.14512207
248	0xbd5c0ee7	-0.05372515
249	0x3e0285aa	0.12746301
250	0xbcb50635	-0.022097686
251	0x3dff4b30	0.12465513
252	0xbf49ebce	-0.78875434
253	0xbed05ae1	-0.40694335
254	0x3e6aeae5	0.22941168
255	0xbe854adc	-0.26033676

mlp.user_emb.weight f4 [943, 32]
0	0x3c85e974	0.01634667
1	0x3d61811d	0.055054773
2	0x3b64dbe0	0.0034921095
3	0xbdd50191	-0.104006894
4	0x3dbf2a89	0.09334285
5	0x3cff6277	0.031174881
6	0x3e11d1ba	0.1424016
7	0x3d3b9ae9	0.04580203
8	0xbda85b21	-0.082205065
9	0x3d633415	0.05546959
10	0xbc6045bb	-0.0136885
11	0xbdf461c9	-0.119327135
12	0xbc4c21c0	-0.0124592185
13	0x3d727895	0.059197027
14	0x3d815b51	0.06316245
15	0x3d35ffb0	0.044433296
16	0x3cd386c0	0.02582109
17	0x3c3a0b21	0.011355192
18	0xbd488939	-0.04895899
19	0x3d56c2bb	0.052431803
20	0x3dc2e4a6	0.095162675
21	0x3c9c3360	0.019067466
22	0xbde753d6	-0.11295287
23	0xbd0bd914	-0.03414257
24	0xbdb6c693	-0.08924594
25	0x3d5bd83d	0.053673018
26	0x3d2bb786	0.04192307
27	0x3dbecdbe	0.09316586
28	0x3d6efe7c	0.058348164
29	0x3d1b59b9	0.037927363
30	0xbc45578a	-0.012044797
31	0xbb939fdb	-0.0045051402
32	0x3d0636a3	0.03276695
33	0x3d4011e1	0.04689205
34	0x3d944042	0.07238819
35	0xbd49c3df	-0.049259063
36	0x3dc03db8	0.09386772
37	0x3e23c973	0.15994816
38	0xbcf3d070	-0.029762477
39	0x3d8e4fa2	0.069487825
40	0xbd93c21f	-0.0721476
41	0x3d853616	0.06504457
42	0xbd090aa5	-0.033457417
43	0xbb801563	-0.0039087995
44	0xbd8f8f01	-0.07009698
45	0xbdd3554a	-0.10319002
46	0x3d6725c2	0.056432493
47	0x3c787075	0.015163531
48	0x3c596b5f	0.013270228
49	0xbb53ee78	-0.0032338183
50	0x3c93fc33	0.018064594
51	0x3cd776b2	0.026301716
52	0xbc1fe766	-0.0097597595
53	0xbafc6cff	-0.0019258558
54	0xbdd83f53	-0.10558953
55	0x3d9fad21	0.077966936
56	0xbdfd3325	-0.12363271
57	0x3cfc5c9f	0.030805884
58	0x3d2b6dcc	0.041852757
59	0x3e0a0600	0.13478851
60	0x3c9e6f21	0.0193401
61	0x3dc7aaca	0.09749372
62	0xbdd0a6f4	-0.10188094
63	0xbd71ccf5	-0.059033353
64	0x3db57b4c	0.08861408
65	0x3e0f2da1	0.1398225
66	0x3def3b51	0.116812356
67	0xbe099616	-0.1343616
68	0x3e142d30	0.14470363
69	0x3dc541f0	0.09631717
70	0xbbcf7053	-0.0063305288
71	0xbc8a073e	-0.016849156
72	0xbe167b72	-0.14695528
73	0x3ca70643	0.020388728
74	0xbd9e7062	-0.07736279
75	0x3e015a59	0.12632121
76	0xbdf41377	-0.11917775
77	0xbd840b4f	-0.064474694
78	0x3d933bc5	0.071891345
79	0xbd748594	-0.059697703
80	0x3e422fb2	0.18963507
81	0x3d3e0ace	0.046397023
82	0x3e10a819	0.14126624
83	0x3b456d65	0.0030125019
84	0xbd6c22d4	-0.057650402
85	0x3e14da8c	0.14536494
86	0xbe589485	-0.21150406
87	0x3e7044fd	0.23463817
88	0xbe04243d	-0.12904449
89	0xbe05dfb5	-0.13073619
90	0x3e84c005	0.2592775
91	0xbd5b2287	-0.053499725
92	0x3dece47f	0.1156702
93	0x3d9d3bfb	0.07677456
94	0xbe693ce2	-0.22777131
95	0xbdbb229a	-0.09137459
96	0x3d5c8361	0.05383623
97	0xbe11eb81	-0.14249994
98	0x3b7b04ba	0.0038302378
99	0x3e679783	0.22616391
100	0xbe6f2c04	-0.23356634
101	0xbdc08d50	-0.09401953
102	0xbe719fca	-0.23596111
103	0x3d4b289d	0.04959928
104	0x3e50b0aa	0.20379892
105	0xbe5b1406	-0.21394357
106	0xbda47c8e	-0.080315694
107	0xbd3a779e	-0.045524232
108	0xbe15227b	-0.14563935
109	0xbe4af56f	-0.19820188
110	0xbbd0b400	-0.006369114
111	0xbe530d5f	-0.2061057
112	0xbdf864b5	-0.12128583
113	0xbce1b2c2	-0.027551059
114	0xbe5e3f84	-0.21703917
115	0xbd0e3d93	-0.03472669
116	0xbe7c6fbf	-0.24652003
117	0xbd132ea1	-0.03593314
118	0x3ea845fd	0.32865897
119	0xbe71fe69	-0.23632206
120	0x3c8e9ea0	0.017409623
121	0x3e6688eb	0.22513168
122	0xbe86029a	-0.2617386
123	0x3ccefabd	0.025266046
124	0xbd9b65c7	-0.07587772
125	0x3e897f83	0.26855096
126	0x3e4f59cb	0.20249097
127	0x3c95e881	0.018299343
128	0xbe07a6cc	-0.13247222
129	0x3d786989	0.06064752
130	0xbda40651	-0.08009017
131	0x3db3c541	0.087778576
132	0xbba84a00	-0.0051357746
133	0xbe390baf	-0.18070863
134	0xbc2c2943	-0.010507884
135	0xbe4938ac	-0.19650525
136	0xbb47a5f4	-0.0030463906
137	0xbd318756	-0.043341957
138	0x3e24a8dd	0.16080041
139	0x3d49cd4f	0.049268063
140	0x3d2bd3da	0.041950084
141	0x3ca15315	0.019692937
142	0xbda2bc78	-0.07946104
143	0x3b1b2958	0.0023675766
144	0xbd218d7d	-0.039441574
145	0xbdf83f77	-0.1212148
146	0xbade021d	-0.0016937886
147	0xbcd3105e	-0.02576464
148	0xbc3679e5	-0.01113746
149	0xbddfec7a	-0.10933776
150	0x3caf90b4	0.021431305
151	0xbc1e8e5c	-0.009677496
152	0x3dfd01d5	0.12353865
153	0xbc68282d	-0.014169735
154	0x3c37cce9	0.011218288
155	0xbe1604ed	-0.14650317
156	0xbdde6bb9	-0.1086039
157	0xbe157be5	-0.14598043
158	0xbca0c40f	-0.019624738
159	0x3e027872	0.12741259
160	0xbe06c35a	-0.13160458
161	0x3e046ef7	0.12932955
162	0xbddf2b4a	-0.108969286
163	0x3d43f56b	0.04784147
164	0xbd279c72	-0.040920682
165	0xbdd0d1a7	-0.10196238
166	0x3c7a86b5	0.015290906
167	0xbe2f6596	-0.17128596
168	0x3d1491c2	0.036271818
169	0xbd22c813	-0.039741587
170	0x3e613030	0.21991038
171	0x3d07e13e	0.033173792
172	0x3dc6defa	0.09710498
173	0xbbd7d3f3	-0.0065865456
174	0xbdca67d4	-0.09883085
175	0xbc20c338	-0.009812169
176	0xbdf7e174	-0.12103549
177	0xbe201432	-0.15632704
178	0xbdab6d29	-0.0837043
179	0xbd8d8c7a	-0.069115594
180	0xbac2d4f0	-0.0014864486
181	0xbcc0af4f	-0.023521094
182	0x3d33ed4a	0.04392747
183	0xbd9fc0d9	-0.07800455
184	0x3e311cef	0.17296194
185	0x3d632e77	0.055464234
186	0xbd28310a	-0.041062392
187	0xbd893138	-0.06698841
188	0xbe25cc67	-0.16191255
189	0x3d1b0d18	0.037854284
190	0x3d6a9a6a	0.057276167
191	0x3dc1bfac	0.09460387
192	0xbe1d24ed	-0.15346117
193	0x3e8aad5f	0.27085397
194	0xbe3ef315	-0.18647416
195	0xbd7ce4fb	-0.06174181
196	0x3d0e5ce1	0.034756545
197	0xbe10dbe8	-0.14146388
198	0x3daefbde	0.085441336
199	0xbe828f70	-0.2550006
200	0xbd35e76e	-0.04441016
201	0x3de9bac1	0.114125736
202	0x3e0756ba	0.13216677
203	0xbda1d4d5	-0.079019226
204	0x3e135443	0.14387612
205	0x3d2aed5b	0.041730266
206	0xbd45ab5b	-0.04825912
207	0x3d2fd8c6	0.04293134
208	0xbe115e27	-0.14196073
209	0xbea39ad0	-0.3195405
210	0x3d16a36d	0.03677695
211	0xbd81d76b	-0.06339916
212	0x3d194728	0.037421376
213	0xbdf07fee	-0.11743151
214	0xbe15301b	-0.14569132
215	0x3c08644b	0.008324693
216	0x3cb21368	0.02173777
217	0xbb9bf6b6	-0.004759635
218	0x3da12ca5	0.078698434
219	0xbdff054b	-0.124521814
220	0xbdc711fe	-0.097202286
221	0xbc455cbf	-0.012046038
222	0xbcbdcd48	-0.023169175
223	0x3e65cc5d	0.2244124
224	0xbeb76c10	-0.35824633
225	0x3dceb714	0.10093513
226	0xbea0ca4f	-0.3140435
227	0x3e32011d	0.17383237
228	0xbe128881	-0.14309885
229	0x3caa2808	0.020771042
230	0xbdb8ab43	-0.090170406
231	0x3be887c5	0.007096263
232	0x3dfa64b5	0.122262396
233	0xbd94d071	-0.072663195
234	0x3e3ad4c0	0.1824522
235	0x3e480c70	0.19535995
236	0x3e698514	0.22804672
237	0xbdc77093	-0.09738269
238	0xbe047976	-0.12936959
239	0xbdcb00d9	-0.09912271
240	0xbe77da75	-0.24204428
241	0xbd43c120	-0.0477916
242	0xbdf73055	-0.120697655
243	0xbdce553e	-0.100748524
244	0xbdf9aea4	-0.12191513
245	0xbe4e2fb3	-0.20135383
246	0x3d86270e	0.06550418
247	0xbdaefb96	-0.0854408
248	0x3e0c5e23	0.13707785
249	0x3da4e651	0.08051742
250	0xbd9718b7	-0.07377761
251	0xbdcfa2ea	-0.10138495
252	0xbe2b7fa9	-0.16747917
253	0x3dc87c09	0.09789283
254	0x3dd9fa65	0.10643462
255	0x3e8b598b	0.27216753

mlp.item_emb.weight f4 [1682, 32]
0	0x3daf284b	0.08552607
1	0xbe42a49c	-0.19008106
2	0x3dca556d	0.09879575
3	0xbe46c4c0	-0.19410992
4	0x3e9235ca	0.28556663
5	0xbd4fee9d	-0.05076467
6	0x3e82f133	0.25574645
7	0xbe9f4343	-0.31106004
8	0x3d74d299	0.059771154
9	0xbe14a4a2	-0.14515927
10	0x3e669dfc	0.22521204
11	0x3e8862a7	0.26637766
12	0x3e18c28e	0.14917967
13	0x3a85533b	0.0010171899
14	0x3cd56933	0.02605114
15	0xbe23bf75	-0.15991004
16	0xbe09b767	-0.13448869
17	0xbe80d1c1	-0.2516003
18	0xbe74e240	-0.23914433
19	0xbd577964	-0.052606
20	0x3a4193df	0.00073844
21	0x3c574d84	0.01314104
22	0xbd6d182c	-0.05788438
23	0x3db52856	0.08845584
24	0x3e760fb7	0.24029432
25	0xbe95fcec	-0.29294527
26	0x3ca92ad6	0.020650309
27	0x3dfb6449	0.12274987
28	0x3e0395b0	0.1285007
29	0xbe058145	-0.13037594
30	0x3e6bb7cf	0.23019336
31	0x3e40e65e	0.18837878
32	0x3da6dbe3	0.08147409
33	0x3e54eeb6	0.20794186
34	0xbe860fe5	-0.26184002
35	0x3e6128cd	0.2198822
36	0xbe8546d0	-0.26030588
37	0x3de94636	0.11390345
38	0xbe91af7d	-0.284542
39	0x3e7e31e4	0.2482372
40	0xbe6d58e0	-0.23178434
41	0x3e62e27a	0.22156706
42	0xbe7bdbfe	-0.24595639
43	0xbe3c4258	-0.18384683
44	0xbe5c5ce3	-0.21519808
45	0xbe5e03c0	-0.21681118
46	0xbe904e20	-0.28184605
47	0x3e666d0d	0.22502537
48	0x3e64fb56	0.22361502
49	0x3e625b24	0.2210508
50	0x3e6d0556	0.23146567
51	0x3e6364a8	0.22206366
52	0xbe865f4e	-0.26244587
53	0x3e7482ed	0.23878069
54	0x3e7acbdd	0.2449183
55	0x3d8cb601	0.06870652
56	0xbe6b90e5	-0.23004492
57	0x3e2b8e83	0.16753583
58	0xbe7548d6	-0.23953566
59	0xbe5ef8b2	-0.21774557
60	0xbe7ba1f4	-0.24573499
61	0x3e899a96	0.26875752
62	0xbe737a80	-0.23777199
63	0xbe8744c0	-0.2641964
64	0xbec0b17d	-0.37635413
65	0xbe86fbf1	-0.2636409
66	0x3e89dfa1	0.26928428
67	0xbe7c784d	-0.24655266
68	0x3e7f7245	0.24945934
69	0x3eb2babf	0.349081
70	0x3e90d3de	0.28286642
71	0xbe4bf570	-0.19917846
72	0x3e994e24	0.2994243
73	0xbe748d0b	-0.23881929
74	0x3e7a5094	0.244448
75	0x3e59f677	0.21285425
76	0x3d66666e	0.05625003
77	0x3e94243f	0.28933904
78	0x3e9b7bfb	0.30368027
79	0xbe8d0f16	-0.27550572
80	0xbe934211	-0.28761342
81	0xbe051d7f	-0.12999533
82	0xbe901def	-0.28147838
83	0x3eb4ef19	0.35338667
84	0x3e7300af	0.2373073
85	0xbe845173	-0.2584339
86	0xbe5c00a4	-0.2148462
87	0xbeabea8a	-0.33577377
88	0x3e6500ad	0.22363539
89	0xbe2ff77b	-0.1718425
90	0x3e915ae3	0.28389654
91	0x3e971ff3	0.29516563
92	0x3e909914	0.2824179
93	0xbe78ae7f	-0.24285315
94	0x3e8b6045	0.27221885
95	0x3e854622	0.2603007
96	0x3cf1760e	0.029475238
97	0xbd735050	-0.059402764
98	0x3cc7bdb8	0.024382457
99	0xbd0c26f9	-0.034216855
100	0x3dcfd0ea	0.10147269
101	0xbd05a5e5	-0.032628912
102	0x3d9cae93	0.07650485
103	0xbdd3e8ea	-0.10347159
104	0x3dae76e2	0.08518769
105	0xbd47da49	-0.048792157
106	0x3ddfbbb9	0.10924477
107	0x3ce541cb	0.027985474
108	0xbdc938ae	-0.09825264
109	0x3d46443d	0.04840492
110	0x3d9078c8	0.07054287
111	0xbe34df59	-0.17663325
112	0xbda99447	-0.08280235
113	0x3d6b35f6	0.057424508
114	0xbdbeb312	-0.09311499
115	0x3cccc802	0.024997715
116	0x3db0c6b6	0.08631651
117	0xbd75a626	-0.059972905
118	0xbc9268eb	-0.017872294
119	0x3d1229cd	0.035684396
120	0xbb019e10	-0.001977805
121	0xbd44f56a	-0.048085608
122	0x3e2122e6	0.15735969
123	0x3d7a5827	0.061119225
124	0x3db87918	0.09007472
125	0xbe4b709c	-0.19867176
126	0x3d9111be	0.07083462
127	0x3d08db9c	0.03341256
128	0x3bb7af0b	0.0056055835
129	0xb9eb134a	-0.00044837064
130	0xbcdfd2d2	-0.027322207
131	0xbd74f203	-0.059801113
132	0xbd84481d	-0.06459067
133	0xbe2a635f	-0.1663947
134	0xbd2c009f	-0.04199278
135	0xbc29ea4e	-0.010370804
136	0x3d32b157	0.043626156
137	0x3d26511e	0.040604703
138	0xbd457d75	-0.04821535
139	0xbbc1d2dc	-0.005915029
140	0xbd821f7a	-0.0635366
141	0x3d0e13c1	0.034686808
142	0xbc8d11d0	-0.017220408
143	0xbc63c140	-0.013901055
144	0xbc1e7d2d	-0.009673399
145	0x3d9c3e69	0.07629091
146	0x3d63259f	0.0554558
147	0xbe515007	-0.20440684
148	0xbc2ee969	-0.0106757665
149	0x3ccb6951	0.024830492
150	0x3cd7f1ca	0.026360411
151	0x3cd84edd	0.026404792
152	0x3c07920e	0.008274568
153	0x3cc5005c	0.024048023
154	0xbc072a2e	-0.0082498025
155	0xbcdeeb2b	-0.027211746
156	0x3cdec887	0.027195228
157	0x3c999566	0.018747997
158	0x3ca2fbf9	0.01989554
159	0xbc4ec897	-0.0126210665
160	0x3ce4cc23	0.027929371
161	0x3db21d72	0.086970225
162	0xbdb75c3c	-0.08953139
163	0x3da7ae8d	0.0818759
164	0xbdf80e5d	-0.121121146
165	0xbe3cab2e	-0.18424675
166	0xbe0907a6	-0.13381824
167	0x3da5b8c1	0.0809188
168	0xbdcb3292	-0.09921755
169	0x3db1337c	0.08652398
170	0xbdf0f25d	-0.11764977
171	0xbdcd0143	-0.10010006
172	0xbd5006ed	-0.050787855
173	0xbdaa394c	-0.0831171
174	0xbdbc5906	-0.091966674
175	0x3e0eae46	0.13933668
176	0x3e02c3c8	0.12769997
177	0x3cf82d65	0.030295083
178	0x3dfb93b1	0.12284029
179	0xbe58705e	-0.21136615
180	0xbdf36e60	-0.11886287
181	0x3dc4446c	0.09583363
182	0x3d9d1b11	0.07671178
183	0x3dfbba8b	0.122914396
184	0xbda83bf8	-0.08214563
185	0x3dc559e7	0.09636288
186	0xbe073414	-0.1320346
187	0xbd8100d4	-0.06298986
188	0xbe0250ac	-0.12726086
189	0x3d83f9aa	0.06444104
190	0xbdc288da	-0.094987586
191	0xbda57e11	-0.08080686
192	0x3d77216b	0.060334604
193	0x3dee800e	0.11645518
194	0xbe26f0dc	-0.16302818
195	0x3e1743e8	0.14771998
196	0xbde48a7d	-0.11159227
197	0xbd0e2c37	-0.034710135
198	0xbe01c749	-0.12673678
199	0x3e04dc71	0.12974717
200	0xbe0b7e2c	-0.1362235
201	0x3e237174	0.15961248
202	0xbdfb19cd	-0.122607805
203	0xbe09732d	-0.13422842
204	0xbe2efe3c	-0.1708917
205	0xbe1c1d03	-0.15245442
206	0xbe127e79	-0.14306058
207	0x3dfd2373	0.12360277
208	0x3e00b8cb	0.12570493
209	0x3e23897c	0.15970415
210	0x3e1059b8	0.14096725
211	0xb9cb69a8	-0.00038797897
212	0xbe056bdd	-0.13029428
213	0x3dbbf1b8	0.091769636
214	0x3e167130	0.14691615
215	0x3d204540	0.039128542
216	0xbdf27887	-0.11839395
217	0x3e1acef1	0.15118004
218	0xbdcd95c1	-0.10038329
219	0xbdea5903	-0.11442759
220	0xbdc4e3a2	-0.0961373
221	0x3e02c224	0.12769371
222	0xbde866d9	-0.11347742
223	0xbdff22f5	-0.124578394
224	0xbd1a4ef3	-0.037672948
225	0xbd917f70	-0.07104385
226	0x3d4aa06e	0.049469404
227	0xbd21b43d	-0.03947853
228	0x3dbb8cb3	0.091576956
229	0xbc165510	-0.009175554
230	0x3d13fa3d	0.036127318
231	0xbd46da51	-0.048548046
232	0x3e262458	0.16224802
233	0x3c5bab54	0.013407547
234	0x3dbded0e	0.0927373
235	0xbcf01c3c	-0.029310338
236	0xbe01c040	-0.12670994
237	0x3d92f47f	0.0717554
238	0x3df6674d	0.12031422
239	0xbe84a4ad	-0.25906888
240	0xbe105fab	-0.14098994
241	0x3d8c846c	0.06861195
242	0xbda753c0	-0.08170271
243	0xbbd81b84	-0.006595077
244	0x3d0c5381	0.034259323
245	0xbdd9b80a	-0.10630806
246	0x3cc4aad9	0.024007248
247	0xbda747fe	-0.08168028
248	0x3d1c1e28	0.038114697
249	0xbceb4fb8	-0.028724536
250	0x3e0e5604	0.139
251	0x3ddb68f0	0.107133746
252	0x3dd2669b	0.10273477
253	0xbdf4b5d1	-0.11948741
254	0x3dd086ef	0.101819865
255	0x3bab61f6	0.0052301837

mlp.fc_layers.0.weight f4 [32, 64]
0	0x3e641607	0.22274028
1	0xbedd55b9	-0.43229464
2	0x3f0d2e73	0.55149
3	0x3e3e9212	0.18610409
4	0x3d6caa0e	0.057779364
5	0x3c0a92b4	0.008457828
6	0xbec49dcd	-0.38401642
7	0xbcef0929	-0.029179173
8	0x3e92c165	0.28663173
9	0xbee28c16	-0.44247502
10	0xbe7e81a9	-0.24854149
11	0xbee73581	-0.45158008
12	0xbee15cad	-0.44016019
13	0xbedc548a	-0.43033248
14	0x3eac51a0	0.33656025
15	0x3c93b091	0.01802853
16	0x3e921ce5	0.2853767
17	0x3ec60b78	0.38680625
18	0xbe3d7089	-0.1849996
19	0x3b943cfa	0.0045238705
20	0xbe947876	-0.28998154
21	0x3c3a46bf	0.011369406
22	0x3e5566c4	0.20839983
23	0xbe09df22	-0.13464025
24	0x3c424fa9	0.011859813
25	0x3e6d1fc4	0.23156649
26	0x3d130c15	0.035900194
27	0x3ebdcf61	0.3707228
28	0xbd6e9bad	-0.058253933
29	0x3ec6fad5	0.38863245
30	0xbd994f00	-0.07485771
31	0xbeba55bf	-0.36393544
32	0xbeaf8ecf	-0.34288642
33	0x3e81d5d4	0.2535845
34	0x3eaf821e	0.3427896
35	0xbe792692	-0.2433112
36	0xbe3bd378	-0.18342388
37	0x3ee283ec	0.44241273
38	0x3dff7d43	0.12475064
39	0xbeb0f6bf	-0.34563252
40	0xbe1936e3	-0.14962344
41	0x3dd100f7	0.10205262
42	0xbe39bc20	-0.1813817
43	0x3dbec84d	0.09315548
44	0x3ef80ec3	0.48448762
45	0x3d06a61f	0.03287327
46	0xbe6e02c6	-0.23243245
47	0x3ecf43b6	0.40481347
48	0x3ecca5b2	0.39970165
49	0xbeba0c07	-0.363373
50	0x3e956cbb	0.29184517
51	0x3ea15f86	0.3151819
52	0x3d91f9fa	0.07127757
53	0x3b2853dd	0.0025684752
54	0xbe32528c	-0.17414302
55	0xbf14c009	-0.5810552
56	0x3ed50f8f	0.41613433
57	0xbe40f856	-0.18844733
58	0x3d7068bf	0.058693644
59	0xbe87f84e	-0.2655663
60	0xbe8c7da4	-0.27439606
61	0xbd5c43a5	-0.05377545
62	0xbe022641	-0.12709905
63	0xbe37c80f	-0.1794741
64	0xbd89b752	-0.06724419
65	0xbdb36c1d	-0.08760855
66	0x3df7f8f9	0.12108035
67	0x3ef8c4a5	0.48587528
68	0x3de113f1	0.10990132
69	0xbf0cea13	-0.5504467
70	0xbea4e6c0	-0.32207298
71	0x3d0b6e70	0.03404087
72	0x3db8f675	0.09031383
73	0x3e07ed7c	0.13274187
74	0x3ed72b2e	0.4202513
75	0x3f02d24b	0.5110213
76	0x3e8fc2d9	0.28078344
77	0xbeaa87f3	-0.33306846
78	0xbefd35e6	-0.49455184
79	0xbe6c2240	-0.2305994
80	0xbe9ad0e1	-0.30237487
81	0xbe694858	-0.22781503
82	0x3e36d0b1	0.17853047
83	0xbf0cd85f	-0.55017656
84	0xbda8cd98	-0.08242339
85	0xbeab8a92	-0.33504158
86	0x3f210f64	0.6291411
87	0xbc9bf0db	-0.019035747
88	0x3f10be7a	0.56540644
89	0xbd4cb367	-0.04997578
90	0xbe260e4f	-0.16216396
91	0xbea721aa	-0.3264287
92	0xbe61c74a	-0.22048679
93	0xbbbe7529	-0.0058123064
94	0x3d904f09	0.07046325
95	0x3e4a72e3	0.19770388
96	0x3e007e9d	0.12548299
97	0x3dd6bbb5	0.10485021
98	0xbab96b71	-0.00141464
99	0x3e74cf52	0.23907211
100	0x3e959d2c	0.29221475
101	0x3f0ae3a3	0.54253596
102	0x3e277ade	0.16355464
103	0xbdd29993	-0.10283198
104	0xbdd047fc	-0.1016998
105	0x3d91aba2	0.071128145
106	0xbd54703b	-0.051864844
107	0x3bf2b157	0.0074063945
108	0xbe0e408c	-0.1389181
109	0xbe977675	-0.29582563
110	0x3c26f2a7	0.010189689
111	0xbe86d0d3	-0.26331195
112	0xbd6793a5	-0.05653729
113	0x3ec9f9de	0.39448446
114	0xbe49476a	-0.19656149
115	0x3f021d35	0.50825816
116	0x3c864e23	0.01639468
117	0x3eabab35	0.33529058
118	0x3de3c8d5	0.1112229
119	0xbe4af7c5	-0.19821079
120	0xbdb0962e	-0.086223945
121	0xbe2228a0	-0.1583581
122	0x3e9f6384	0.31130612
123	0xbe2df7a7	-0.16989003
124	0x3daba090	0.08380234
125	0xbea04fdc	-0.31310928
126	0xbac29e0f	-0.001484813
127	0xbe779059	-0.24176158
128	0x3cc61dec	0.02418419
129	0xbd6750ed	-0.05647366
130	0x3bd2498d	0.0064174593
131	0x3e3e9955	0.18613179
132	0xbf160620	-0.58603096
133	0xbe0e7996	-0.13913569
134	0xbf2f80a7	-0.6855568
135	0x3d734305	0.059390087
136	0x3ef3d30e	0.4762196
137	0xbdaf27d4	-0.085525185
138	0xbd9b4495	-0.0758144
139	0x3ed8646d	0.4226412
140	0x3e9077a0	0.28216267
141	0xbeaccabf	-0.33748433
142	0xbe9821ed	-0.29713383
143	0xbf12754b	-0.57210225
144	0xbd704a35	-0.05866452
145	0xbdc2c594	-0.09510341
146	0xbedf9534	-0.4366852
147	0xbdf61c62	-0.12017132
148	0xbf0a7337	-0.54082054
149	0x3d3d47ce	0.046211056
150	0x3ee43cb6	0.4457757
151	0xbf1b5a97	-0.60685104
152	0x3e130443	0.14357094
153	0x3eb78283	0.3584176
154	0xbf23fb63	-0.6405546
155	0xbde584a0	-0.11206937
156	0x3dd26ea4	0.10275009
157	0x3f3a4130	0.7275572
158	0x3e9f2deb	0.3108972
159	0x3e946fcb	0.2899154
160	0x3e01cc63	0.12675624
161	0x3e68a482	0.22719005
162	0xbeb54ab4	-0.35408556
163	0x3ebddef1	0.37084153
164	0xbd08001f	-0.03320324
165	0xbd8c7199	-0.068576045
166	0xbea80727	-0.32817957
167	0x3dd84910	0.105608106
168	0xbebc3e53	-0.367663
169	0x3e87de83	0.2653695
170	0xbdba3cea	-0.0909365
171	0xbebba6e3	-0.36650762
172	0xbc2eec96	-0.010676524
173	0xbe6e686c	-0.23282021
174	0xbedde9b3	-0.4334236
175	0x3d90c0ea	0.070680454
176	0x3e6ad12b	0.22931354
177	0x3eadea74	0.33967936
178	0x3ef15e2f	0.4714217
179	0x3e501b2a	0.20322862
180	0x3c15fd45	0.009154622
181	0xbc73c803	-0.0148792295
182	0x3dc4f9c0	0.096179485
183	0xbe1144a3	-0.14186339
184	0xbe89267c	-0.26787174
185	0x3e269812	0.16268948
186	0x3c842c81	0.016134502
187	0xbecc68a5	-0.39923587
188	0xbe655b5d	-0.22398134
189	0xbe2d9739	-0.16952218
190	0xbd90e488	-0.07074839
191	0xbdba7f22	-0.0910628
192	0x3e1b4e2e	0.15166542
193	0xbe204e24	-0.15654808
194	0x3e550ebf	0.20806406
195	0x3e5eb58e	0.21748945
196	0xbe2cafe0	-0.16863966
197	0xbe27c0fc	-0.16382211
198	0xbf04d5a5	-0.51888496
199	0xbe8c6882	-0.27423483
200	0xbd55a505	-0.052159328
201	0xbeb06b76	-0.34456986
202	0x3e39629c	0.18104023
203	0xbee2dda7	-0.44309732
204	0xbede5040	-0.434206
205	0xbd8f9ee9	-0.070127316
206	0x3e87b519	0.26505354
207	0xbed10823	-0.4082652
208	0x3ddbec24	0.107383996
209	0xbe6673e8	-0.22505152
210	0xbe826577	-0.25468037
211	0x3ea9cbc6	0.3316328
212	0xbed665d6	-0.4187457
213	0x3e095248	0.13410294
214	0x3dac4349	0.08411271
215	0xbec47328	-0.38369107
216	0xbdc2f3d9	-0.095191665
217	0x3e8c8154	0.2744242
218	0xbdffdcaa	-0.1249326
219	0x3e56649f	0.20936821
220	0xbe8c210f	-0.27368972
221	0x3e8927da	0.26788217
222	0xbd8f0d0e	-0.06984912
223	0xbedf3356	-0.43593854
224	0xbece4804	-0.4028932
225	0x3e4c85ac	0.19972867
226	0x3c7bfb6c	0.015379768
227	0xbe2a0e9b	-0.16607134
228	0xbed62c63	-0.4183074
229	0x3e94fac3	0.29097566
230	0xbe934c87	-0.28769323
231	0xbea32dfa	-0.31871015
232	0xbf0bc6e2	-0.54600346
233	0xbdfb23f8	-0.1226272
234	0xbdb656f1	-0.089033015
235	0x3d94b77a	0.07261558
236	0x3ea40ab7	0.32039425
237	0x3e28eb93	0.16496114
238	0x3cb2c309	0.021821516
239	0x3e647690	0.22310853
240	0x3e4b7282	0.198679
241	0xbe6bec9e	-0.23039481
242	0x3eb8f9fa	0.36128217
243	0xbd4647df	-0.048408385
244	0x3cbeb511	0.023279699
245	0x3eb1ea7b	0.34749207
246	0xbe5207d6	-0.20510802
247	0xbea04943	-0.31305894
248	0x3e283ecc	0.16430205
249	0xbeb3053b	-0.34964928
250	0xbdabf9e7	-0.083972745
251	0xbe99d972	-0.3004871
252	0xbf046a6a	-0.51724875
253	0x3e202a59	0.15641154
254	0xbe296029	-0.16540588
255	0x3da4f1c5	0.080539264

mlp.fc_layers.0.bias f4 [32]
0	0xbe74a5cc	-0.23891371
1	0x3e9a87ba	0.30181676
2	0xbe2f29f4	-0.17105848
3	0xbe789280	-0.24274635
4	0xbe82f868	-0.25580144
5	0x3eb409d0	0.35163736
6	0xbe512798	-0.2042526
7	0x3e183ce7	0.14866982
8	0x3e5c0bd8	0.21488893
9	0x3e2bb8ab	0.16769664
10	0x3f030f88	0.51195574
11	0xbe324981	-0.17410852
12	0x3e91d5de	0.2848348
13	0x3a069873	0.0005134411
14	0xbe59e28c	-0.21277827
15	0xbe5a7eb2	-0.21337393
16	0xbe0675a9	-0.13130821
17	0x3e98fa9e	0.29878706
18	0x3ee36e0f	0.44419906
19	0x3e81410b	0.25244936
20	0x3ea3725f	0.31923196
21	0xbe26c75f	-0.16286992
22	0xbe7525bb	-0.23940174
23	0x3eef208d	0.46704522
24	0xbdbebc09	-0.093132086
25	0x3e101615	0.14070924
26	0x3eeb3257	0.45936844
27	0xbe72e3da	-0.23719731
28	0xbdf2872d	-0.11842189
29	0xbe9241f4	-0.28565943
30	0x3eb21e1b	0.34788594
31	0xbe6c6c06	-0.23088083

mlp.fc_layers.2.weight f4 [16, 32]
0	0xbca5f77e	-0.020259615
1	0xbe3357ad	-0.17513914
2	0x3e92d942	0.2868138
3	0x3e1732cf	0.14765476
4	0x3df7ca8a	0.12099178
5	0xbf078585	-0.5293811
6	0xbf537dea	-0.82614005
7	0xbf78984e	-0.971074
8	0xbef34da2	-0.47520167
9	0xbf01c246	-0.5068706
10	0xbe1dc5e4	-0.1540752
11	0x3e5b5558	0.21419275
12	0xbf73e215	-0.9526685
13	0x3dc221e9	0.09479124
14	0xbd0958ed	-0.03353207
15	0x3e396070	0.18103194
16	0x3e3cc54a	0.18434635
17	0xbe8e9692	-0.2784925
18	0xbcfc0d3d	-0.030768031
19	0xbf4d9cf7	-0.80317634
20	0xbf6b4fa6	-0.9191841
21	0x3e623a4e	0.22092554
22	0x3e3e3558	0.18575037
23	0x3f2cf599	0.6756225
24	0xbece1c77	-0.40256092
25	0xbf665a45	-0.8998149
26	0xbf833e99	-1.0253478
27	0xbe7e1f5d	-0.24816652
28	0x3e009981	0.12558557
29	0xbe76fa91	-0.24119021
30	0xbef2b7fd	-0.47405997
31	0x3df404e4	0.11914995
32	0xbeb74f1c	-0.35802543
33	0x3cbaa281	0.022782566
34	0xbeb44f02	-0.35216528
35	0xbf0e2e5b	-0.5553948
36	0xbd3353d9	-0.043781135
37	0x3ce67efe	0.028136726
38	0xbeafbe0f	-0.3432469
39	0x3ea50423	0.3222972
40	0x3f3273d5	0.69707996
41	0x3e4500fa	0.19238654
42	0x3e779416	0.24177584
43	0xbec272f5	-0.3797833
44	0x3eb83a67	0.35982057
45	0x3ed86852	0.4226709
46	0x3d04931d	0.03236686
47	0x3e978c51	0.2959924
48	0xbebc7c4c	-0.3681358
49	0x3f027818	0.509645
50	0x3e9f8f60	0.31164074
51	0x3d878327	0.06616812
52	0x3cb97e07	0.022643102
53	0xbe9bb866	-0.30414122
54	0xbe9d3c5a	-0.30710107
55	0xbb520148	-0.003204422
56	0xbf1c4933	-0.61049193
57	0x3f03143c	0.5120275
58	0x3e88c931	0.26715997
59	0xbe598362	-0.21241525
60	0xbe6b7b6e	-0.22996303
61	0x3c87988e	0.016552236
62	0x3f0307bf	0.51183695
63	0xbd53e643	-0.051733267
64	0xbe0825d5	-0.13295682
65	0xbea1009f	-0.31445786
66	0x3c2fc030	0.010726973
67	0x3e4e6f72	0.201597
68	0x3de72c4a	0.11287744
69	0x3ddd9dcd	0.10821114
70	0x3e58a9ae	0.21158478
71	0x3e47960a	0.19490829
72	0x3e7662ea	0.2406117
73	0xbe970b3c	-0.2950076
74	0xbe824455	-0.25442758
75	0x3d00db38	0.031459063
76	0xbdd111c1	-0.102084644
77	0xbd0c98ee	-0.034325533
78	0xbe322838	-0.17398155
79	0xbe0631ca	-0.1310493
80	0xbe4473b0	-0.19184756
81	0xbe73d915	-0.23813279
82	0x3e545c04	0.20738226
83	0x3e069598	0.13143003
84	0xbe5d4b5d	-0.2161078
85	0xbe8e2fc0	-0.27770805
86	0x3e0fa8d2	0.14029244
87	0xbcfa6888	-0.030567423
88	0x3cc9c196	0.024628442
89	0x3dd3e866	0.10347061
90	0xbebc8e08	-0.3682711
91	0x3e812834	0.25225985
92	0x3e4f7220	0.20258379
93	0xbea55f6b	-0.3229936
94	0xbe7a5fcb	-0.24450605
95	0xbe8fc332	-0.2807861
96	0x3f197d77	0.5995707
97	0xbe96fe59	-0.29490927
98	0x3f077071	0.52905947
99	0xbd9fa997	-0.077960186
100	0x3e5f51c5	0.21808536
101	0xbe5c5edc	-0.21520561
102	0xbe6b3b71	-0.22971894
103	0x3eb41509	0.351723
104	0x3f9329de	1.1497152
105	0x3e5aee7a	0.21380034
106	0xbd8b3c72	-0.067986384
107	0x3eec12bd	0.46108046
108	0x3caa241a	0.020769168
109	0xbda91388	-0.082556784
110	0x3e108980	0.14114952
111	0x3e06cb72	0.13163546
112	0x3c101e91	0.00879635
113	0x3e88deda	0.26732522
114	0xbe750ebb	-0.239314
115	0x3dec73e2	0.115455404
116	0x3cc25489	0.02372195
117	0x3e0105e6	0.12599906
118	0x3e497457	0.19673286
119	0x3d8a854d	0.06763706
120	0x3ea6d116	0.32581395
121	0x3ef036b9	0.4691675
122	0xbed78078	-0.420902
123	0xbe0a22b4	-0.134898
124	0x3e07eadf	0.1327319
125	0x3cb44c0c	0.022008918
126	0x3ea45739	0.32097796
127	0x3e5c69a9	0.21524681
128	0x3f4daf99	0.80346066
129	0xbe7a4488	-0.24440205
130	0x3ed178a6	0.4091236
131	0x3f4a9bf7	0.79144233
132	0x3eee29a3	0.4651614
133	0xbe774fe7	-0.24151574
134	0xbe6072c0	-0.21918774
135	0x3cd7d35c	0.026345901
136	0xbd1b3655	-0.037893612
137	0x3ef5a061	0.47973922
138	0x3dd3032a	0.10303338
139	0xbc918335	-0.01776276
140	0x3ec9e0be	0.39429277
141	0x3f6532ba	0.8953053
142	0x3ed3b77f	0.41350934
143	0xbe1f8cd9	-0.15581073
144	0x3e2aaa12	0.16666439
145	0x3e362168	0.17786181
146	0x3d6092f3	0.05482764
147	0xbd620c4a	-0.0551875
148	0xbd2629f7	-0.040567365
149	0x3f213b7d	0.62981397
150	0xbe43ecf7	-0.19133364
151	0xbf618811	-0.88098246
152	0x3e82e97d	0.25568762
153	0x3e0b07b5	0.13577159
154	0xbe9aa495	-0.3020369
155	0x3ccfcb2f	0.02536544
156	0x3dc3a034	0.09552041
157	0x3e8f492e	0.2798552
158	0xbe542288	-0.20716298
159	0x3eb2c37b	0.34914765
160	0xbe4fd2a6	-0.202952
161	0x3e676e2c	0.22600621
162	0xbf182a7b	-0.5943982
163	0xbe2f2811	-0.17105128
164	0xbf4c5c5c	-0.7982843
165	0xbdb78320	-0.08960557
166	0xbf461ecf	-0.7739076
167	0xbe862ac4	-0.26204503
168	0x3f149b77	0.5804972
169	0x3f04c775	0.5186685
170	0x3d79341c	0.06084071
171	0xbecb03df	-0.3965139
172	0x3f25aed3	0.64719886
173	0x3e3857d1	0.1800225
174	0xbe6d4e78	-0.23174465
175	0x3ec451a6	0.38343543
176	0xbf0d79a9	-0.55263764
177	0x3ec6297c	0.38703525
178	0x3e487136	0.19574437
179	0x3dfba607	0.122875266
180	0x3e7140ae	0.2355983
181	0xbdd49ef8	-0.103818834
182	0x3e15185d	0.14560075
183	0xbf0df08d	-0.55445176
184	0xbee24461	-0.44192794
185	0x3f123abc	0.5712087
186	0x3e39701f	0.18109177
187	0x3e99959d	0.29996958
188	0xbe3fe364	-0.18739086
189	0xbe23415d	-0.15942903
190	0xbdadae22	-0.08480479
191	0x3e243c28	0.16038573
192	0x3e9f8a0e	0.31160015
193	0x3db09bba	0.086234525
194	0x3e300eea	0.1719319
195	0x3f28831b	0.6582505
196	0x3ebb40e0	0.36572933
197	0xbe81f3ea	-0.25381404
198	0xbe636e77	-0.22210108
199	0x3e064920	0.13113832
200	0xbee0280d	-0.43780556
201	0xbe5ec265	-0.21753843
202	0xbe726c8b	-0.23674218
203	0xbe767a27	-0.24070035
204	0xbd1311e2	-0.035905726
205	0x3ec55369	0.385402
206	0x3e4e0508	0.20119107
207	0x3b9566de	0.004559382
208	0x3e91abba	0.2845133
209	0x3dcaa9bb	0.09895655
210	0xbe86f826	-0.26361197
211	0x3e358101	0.17724992
212	0xbe270aae	-0.16312668
213	0x3e680799	0.22659148
214	0x3d196cf1	0.03745741
215	0xbf3ab411	-0.7293101
216	0x3cc935fa	0.02456187
217	0x3f00407f	0.50098413
218	0x3dbac40a	0.09119423
219	0x3e27fdbf	0.1640539
220	0x3e3441fb	0.17603295
221	0xbe5fc0ad	-0.21850844
222	0xbd6267f7	-0.05527493
223	0x3e3e5ee2	0.18590882
224	0x3f38f3ea	0.72247183
225	0x3d0a0a40	0.03370118
226	0x3f281a33	0.65664977
227	0x3f2ac89a	0.66712344
228	0x3ed7a078	0.42114615
229	0xbdade77c	-0.08491418
230	0x3cf0492c	0.029331766
231	0x3e84b00b	0.2591556
232	0x3d3857f3	0.04500575
233	0xbd80c5d9	-0.062877364
234	0xbe0c044a	-0.13673511
235	0x3ecff5ad	0.40617123
236	0xbe136b14	-0.14396316
237	0x3f596b75	0.8492959
238	0x3e25b2e8	0.16181529
239	0x3d22fd4c	0.039792344
240	0x3e6faa10	0.23404717
241	0xbe32515c	-0.17413849
242	0x3db83aae	0.08995567
243	0x3e923f21	0.2856379
244	0x3e53a8dd	0.20669885
245	0x3f3a73c5	0.728329
246	0xbef3c477	-0.47610828
247	0xbed41ae7	-0.41426775
248	0xbd7c15ed	-0.061544348
249	0x3e41bef8	0.18920505
250	0xbdbaed69	-0.09127314
251	0xbed04551	-0.40677884
252	0xbe726e9a	-0.23675004
253	0xbee192be	-0.44057268
254	0xbdc1ad39	-0.09456868
255	0x3f0d3bdb	0.5516946

mlp.fc_layers.2.bias f4 [16]
0	0x3db80366	0.08985023
1	0x3ebc6ac2	0.368002
2	0xbe981f38	-0.29711318
3	0xbdd2764a	-0.10276468
4	0xbe8414df	-0.25797173
5	0x3e8d534f	0.27602622
6	0xbe80b523	-0.25138196
7	0xbe94e5f1	-0.2908168
8	0x3efb7465	0.4911224
9	0x3e652a41	0.223794
10	0xbc5c6d48	-0.013453789
11	0xbd27ec82	-0.040997036
12	0x3cc935e8	0.024561837
13	0xbe0a990a	-0.13534942
14	0xbca9281d	-0.02064901
15	0x3ea35c1c	0.3190621

mlp.fc_layers.4.weight f4 [8, 16]
0	0xbec917a3	-0.39275846
1	0x3e3190e3	0.17340426
2	0xbecf75d5	-0.40519586
3	0x3f0e74ef	0.55647177
4	0x3f090ff9	0.5354
5	0x3ea00728	0.3125546
6	0x3f21fc68	0.63275766
7	0x3f2d428a	0.67679656
8	0xbf09eae1	-0.5387402
9	0x3e0153c6	0.12629613
10	0x3d158455	0.036503155
11	0x3eccbd68	0.39988256
12	0xbe992599	-0.29911497
13	0x3f62e804	0.8863528
14	0x3f043426	0.5164207
15	0x3e086e6f	0.13323377
16	0xbf056ba7	-0.5211739
17	0x3e3e6a62	0.1859527
18	0xbeec804c	-0.46191633
19	0x3e1d2f98	0.15350187
20	0xbc3d16ee	-0.011541111
21	0x3e5914db	0.21199362
22	0xbf0a7dec	-0.5409839
23	0xbf5a9a65	-0.8539184
24	0x3dedb4d2	0.11606754
25	0x3e9b0c03	0.30282602
26	0xbf0b5d38	-0.54439116
27	0xbefc9083	-0.49329004
28	0xbf1fca32	-0.624179
29	0xbe7d3a02	-0.2472916
30	0xbdf1a8d3	-0.11799779
31	0x3f19ae47	0.6003155
32	0xbc92e461	-0.017931165
33	0x3eebf596	0.46085805
34	0xbdaf5528	-0.08561164
35	0x3c9e179d	0.019298369
36	0xbedd203e	-0.4318866
37	0x3f055b57	0.520925
38	0x3bd4e92d	0.0064975233
39	0xbe3911dd	-0.1807322
40	0x3d49292a	0.049111523
41	0x3ead0084	0.33789456
42	0xbf0b4819	-0.5440689
43	0x3c9bf03f	0.019035457
44	0xbf01d5f4	-0.5071709
45	0xbf1f7e5c	-0.62302184
46	0xbe8868f5	-0.26642576
47	0x3ebdd376	0.37075394
48	0xbf351411	-0.70733744
49	0x3eb43818	0.35199046
50	0x3e8d80e3	0.27637395
51	0xbec5e180	-0.38648605
52	0x3d36cb7a	0.044627644
53	0xbcde1297	-0.027108474
54	0xbe817112	-0.25281578
55	0x3e0a9951	0.13535048
56	0xbf07c2b1	-0.5303145
57	0x3f125281	0.5715714
58	0xbe759fc3	-0.23986726
59	0x3f2da7b4	0.6783402
60	0x3ec97d67	0.39353487
61	0x3eb8cf8d	0.3609585
62	0x3f10f70d	0.5662697
63	0x3ecbeaf8	0.39827704
64	0x3f9889e6	1.1917083
65	0xbdac96fb	-0.08427235
66	0x3c6089b6	0.013704708
67	0x3ef4d34c	0.47817457
68	0xbe8a492a	-0.27008945
69	0x3e1cb24a	0.15302387
70	0xbeea0ad5	-0.4571139
71	0xbe88799c	-0.2665528
72	0x3e9f7355	0.3114268
73	0xbe481d26	-0.19542369
74	0x3c752272	0.014961826
75	0xbf2b89dd	-0.6700724
76	0x3e1ac096	0.15112528
77	0x3d2c012b	0.0419933
78	0x3e38cf96	0.18047938
79	0xbd12b2ea	-0.035815157
80	0x3d00a33e	0.03140568
81	0x3f2e85a7	0.6817269
82	0xbc7f1056	-0.01556786
83	0xbe99a7c4	-0.30010808
84	0xbe9f0f6e	-0.3106646
85	0x3f0c26d5	0.5474675
86	0xbf1fb52e	-0.62385833
87	0xbf16898a	-0.5880362
88	0x3f354afb	0.70817536
89	0x3eceb7a7	0.4037449
90	0xbf25c873	-0.64758986
91	0xbf0c0137	-0.54689354
92	0xbf14ca82	-0.581215
93	0xbee567cc	-0.44805753
94	0xbe9e37c3	-0.30901918
95	0x3f161180	0.5862045
96	0xbf894629	-1.0724536
97	0xbf037429	-0.5134912
98	0x3e372606	0.17885599
99	0x3e0ee888	0.13955891
100	0x3f51f8ce	0.8202027
101	0x3eff4f2e	0.49865097
102	0x3e15c5e7	0.14626275
103	0x3f60f4d0	0.87873554
104	0xbf1309b2	-0.5743667
105	0x3d4cd2e9	0.050005827
106	0x3d0becb3	0.03416128
107	0xbda05ec1	-0.07830573
108	0xbe3746d3	-0.17898111
109	0x3d328012	0.04357917
110	0x3ed053c8	0.4068892
111	0x3f217be0	0.63079643
112	0x3f1f63a9	0.62261444
113	0x3f339922	0.7015554
114	0x3a0e5c02	0.00054305803
115	0xbe0eb063	-0.13934474
116	0xbefcf3fe	-0.494049
117	0xbe57d037	-0.21075521
118	0x3e9e8e4f	0.30967948
119	0x3e0d947c	0.13826174
120	0x3e7d5630	0.24739909
121	0xbf1a3b2d	-0.60246545
122	0x3e4bd12c	0.19904011
123	0xbebe0bee	-0.37118477
124	0x3e9930e4	0.29920113
125	0xbf05d6dd	-0.5228098
126	0x3e985cb4	0.29758227
127	0x3e60bd81	0.2194729

mlp.fc_layers.4.bias f4 [8]
0	0x3db3b6c6	0.08775096
1	0xbe2ea55f	-0.17055272
2	0x3dd10c70	0.102074504
3	0x3d560b14	0.05225666
4	0x3ee093a6	0.43862647
5	0x3e713e5f	0.23558949
6	0x3d528bec	0.05140297
7	0x3ec07a27	0.37593195

linear.weight f4 [1, 40]
0	0xc0dd8a6a	-6.9231462
1	0x40e42d7b	7.130552
2	0x40d89fcf	6.769508
3	0xc0e61dc5	-7.191134
4	0xc0e501af	-7.1564555
5	0xc0e6cb37	-7.2123065
6	0xc0fe2ccf	-7.94297
7	0xc0dc614b	-6.8868766
8	0xc0e7f57b	-7.248716
9	0x40ecf530	7.40493
10	0x40d46712	6.637582
11	0xc0e33994	-7.1007786
12	0xc0d80e68	-6.7517586
13	0xc0d5b613	-6.678476
14	0x40e5850f	7.1724925
15	0x40d1db20	6.5579987
16	0xc0e06ea8	-7.013508
17	0x40dc3772	6.881768
18	0xc0de5115	-6.9473977
19	0x40e04c70	7.0093307
20	0x40d1e484	6.559145
21	0xc0e63c54	-7.1948643
22	0xc0dcff62	-6.9061747
23	0x40ec46b1	7.3836293
24	0xc0d1e470	-6.5591354
25	0x40e5f81c	7.186537
26	0xc0cc6b51	-6.3881
27	0xc0e2e14a	-7.090001
28	0xc0e118da	-7.0342836
29	0x40daff89	6.8436933
30	0xc0f03da2	-7.5075235
31	0xc0d356ec	-6.6043606
32	0x3eba0db6	0.36338586
33	0xbf93927d	-1.152908
34	0xbf09c0df	-0.5380992
35	0x3eb28c35	0.34872594
36	0xbed456b8	-0.4147241
37	0xbefed889	-0.49774578
38	0x3ed2e922	0.4119349
39	0xbe78c1ba	-0.24292651
